…
2020-06-19 12:04:29.581216: I tensorflow/core/platform/profile_utils/cpu_utils.cc:102] CPU Frequency: 3591985000 Hz
2020-06-19 12:04:29.581787: I tensorflow/compiler/xla/service/service.cc:168] XLA service 0x6274060 initialized for platform Host (this does not guarantee that XLA will be used). Devices:
2020-06-19 12:04:29.581830: I tensorflow/compiler/xla/service/service.cc:176]   StreamExecutor device (0): Host, Default Version
Model: "model_flat"
_________________________________________________________________
Layer (type)                 Output Shape              Param #   
=================================================================
input_1 (InputLayer)         (None, 97)                0         
_________________________________________________________________
dense_1 (Dense)              (None, 97)                9506      
_________________________________________________________________
dense_2 (Dense)              (None, 291)               28518     
_________________________________________________________________
dense_3 (Dense)              (None, 873)               254916    
_________________________________________________________________
dense_4 (Dense)              (None, 2619)              2289006   
_________________________________________________________________
dense_5 (Dense)              (None, 873)               2287260   
_________________________________________________________________
dense_6 (Dense)              (None, 291)               254334    
_________________________________________________________________
dense_7 (Dense)              (None, 97)                28324     
=================================================================
Total params: 5,151,864
Trainable params: 5,151,864
Non-trainable params: 0
_________________________________________________________________
Epoch 1/200

  1000/205875 [..............................] - ETA: 1:45 - loss: 0.0735 - mean_squared_error: 0.0735
  2000/205875 [..............................] - ETA: 1:17 - loss: 0.0742 - mean_squared_error: 0.0742
…
